…
l no longer be allowed to be loaded via this mode unless they are explicitly allowlisted by the user via `torch.serialization.add_safe_globals`. We recommend you start setting `weights_only=True` for any use case where you don't have full control of the loaded file. Please open an issue on GitHub for any issues related to this experimental feature.
  checkpoint = torch.load(args.finetune, map_location='cpu')
Load ckpt from logs/baselines/bl3/dotah_lr1e3_b28x2_dsampl1val2_ld06_aam6n3/checkpoint-18.pth
Temporal interpolate from 8 to 16
Model = InternVideo2(
  (patch_embed): PatchEmbed(
    (proj): Conv3d(3, 384, kernel_size=(1, 14, 14), stride=(1, 14, 14))
    (norm): Identity()
  )
  (blocks): ModuleList(
    (0): Block(
      (norm1): DropoutAddRMSNorm()
      (attn): Attention(
        (qkv): Linear(in_features=384, out_features=1152, bias=False)
        (attn_drop): Dropout(p=0.0, inplace=False)
        (proj): Linear(in_features=384, out_features=384, bias=True)
        (proj_drop): Dropout(p=0.0, inplace=False)
        (inner_attn): FlashAttention()
        (q_norm): DropoutAddRMSNorm()
        (k_norm): DropoutAddRMSNorm()
      )
      (ls1): LayerScale()
      (drop_path1): Identity()
      (norm2): DropoutAddRMSNorm()
      (mlp): FusedMLP(
        (fc1): Linear(in_features=384, out_features=1536, bias=True)
        (fc2): Linear(in_features=1536, out_features=384, bias=True)
      )
      (ls2): LayerScale()
      (drop_path2): Identity()
    )
    (1-11): 11 x Block(
      (norm1): DropoutAddRMSNorm()
      (attn): Attention(
        (qkv): Linear(in_features=384, out_features=1152, bias=False)
        (attn_drop): Dropout(p=0.0, inplace=False)
        (proj): Linear(in_features=384, out_features=384, bias=True)
        (proj_drop): Dropout(p=0.0, inplace=False)
        (inner_attn): FlashAttention()
        (q_norm): DropoutAddRMSNorm()
        (k_norm): DropoutAddRMSNorm()
      )
      (ls1): LayerScale()
      (drop_path1): DropPath()
      (norm2): DropoutAddRMSNorm()
      (mlp): FusedMLP(
        (fc1): Linear(in_features=384, out_features=1536, bias=True)
        (fc2): Linear(in_features=1536, out_features=384, bias=True)
      )
      (ls2): LayerScale()
      (drop_path2): DropPath()
    )
  )
  (clip_projector): AttentionPoolingBlock(
    (norm1_q): LayerNorm((384,), eps=1e-05, elementwise_affine=True)
    (norm1_k): LayerNorm((384,), eps=1e-05, elementwise_affine=True)
    (norm1_v): LayerNorm((384,), eps=1e-05, elementwise_affine=True)
    (cross_attn): CrossAttention(
      (q): Linear(in_features=384, out_features=384, bias=False)
      (k): Linear(in_features=384, out_features=384, bias=False)
      (v): Linear(in_features=384, out_features=384, bias=False)
      (attn_drop): Dropout(p=0.0, inplace=False)
      (proj): Linear(in_features=384, out_features=768, bias=True)
      (proj_drop): Dropout(p=0.0, inplace=False)
    )
    (drop_path): Identity()
  )
  (fc_norm): LayerNorm((768,), eps=1e-05, elementwise_affine=True)
  (fc_dropout): Identity()
  (head): Linear(in_features=768, out_features=2, bias=True)
)
number of params: 23833346
Assigned values = [0.023757264018058777, 0.03167635202407837, 0.04223513603210449, 0.056313514709472656, 0.07508468627929688, 0.1001129150390625, 0.13348388671875, 0.177978515625, 0.2373046875, 0.31640625, 0.421875, 0.5625, 0.75, 1.0]
Skip weight decay list:  {'pos_embed_spatial', 'pos_embed', 'pos_embed_temporal', 'cls_token', 'pos_embed_cls'}
…
